model/model.pth (torch, 17216 bytes, 4 tensors)

linear1.weight f4 [256, 11]
-0.15640408 0.26880172 0.12064155 0.095817745 0.0007625763 -0.27348065 -0.018919887 0.111929156
-0.308002 -0.07407035 0.19230495 -0.23005675 0.05474425 -0.15418942 -0.033744793 -0.30037585
-0.03602855 -0.067664 0.25255057 0.2643524 -0.1470699 0.19355148 0.10220089 -0.29041642
-0.29609683 0.119441174 -0.25466597 -0.13918778 -0.10942974 0.2689765 -0.22339585 0.04643698
-0.21058753 0.2846364 -0.11554222 0.08959466 0.055187732 0.063546225 0.15971479 -0.11567053
0.067460716 -0.14794396 -0.10908674 -0.18767187 -0.24135967 -0.12391696 0.23815903 0.24725582
0.2276115 -0.10894727 -0.12842806 -0.2515838 0.03562723 -0.098061174 -0.11144478 0.2102204
0.058115013 0.10870768 0.25405627 0.12983032 -0.15047926 0.21615158 -0.1187247 -0.17089869
-0.26327366 0.13011102 0.28725553 0.29377192 -0.062390998 0.058579065 -0.32624713 -0.067281626
-0.3107826 -0.061276868 -0.028089697 0.14109895 0.10829342 0.01858795 0.01886731 0.052923832
-0.16986229 0.026076904 0.08450925 -0.026524859 -0.0044113197 0.15238307 -0.16352928 0.2714779
-0.18257938 0.29820114 -0.084896 -0.20941293 0.27772793 0.061639495 -0.16033277 -0.22057174
-0.05070122 0.3050792 -0.33798015 -0.08426324 0.34098816 0.09800267 0.22708422 0.08289792
-0.1151086 -0.20090581 -0.076532565 -0.08405134 0.0900043 -0.22735886 0.168655 0.08566103
0.21565112 -0.028294837 0.020419747 -0.05371714 -0.090895794 0.18039016 -0.26620945 0.3308515
0.09596725 -0.16637105 -0.19549307 0.06399274 -0.051398527 -0.03160545 -0.09677133 0.087264955
-0.2523425 -0.04674751 0.26348484 0.093265 0.15745042 0.17514512 -0.17417718 0.01155147
-0.051967833 -0.111073166 0.27757105 0.14555436 0.25156677 0.21256831 0.030931689 0.34530824
-0.16616333 0.0005613882 0.08781702 -0.22744074 -0.035228737 -0.0871849 -0.25587267 0.23712069
-0.29435793 0.09552949 0.3412209 0.13326971 0.20216337 -0.2041926 -0.2756019 0.047086444
-0.15406148 0.11377862 0.093018696 0.04208939 0.15999243 -0.3067435 0.1730343 0.044347845
-0.0020776547 -0.13237 0.062442128 0.20996542 -0.15646882 -0.28898415 -0.100446716 0.27714983
-0.16250671 0.21143696 0.24006484 0.28982735 -0.05798953 0.08809151 0.14517125 0.18852262
-0.20528248 -0.23798993 0.17812696 0.14610088 -0.17248541 0.0962325 -0.13621359 -0.024805926
-0.012486114 -0.16875738 -0.26133993 -0.20933399 0.20868714 -0.19492441 -0.07194768 0.29390988
-0.35263407 -0.22632197 -0.07007011 -0.1427115 0.28680182 -0.00060280383 -0.12288787 0.12056524
-0.058410864 -0.2847808 0.10359438 0.22307645 0.17604381 0.12067732 -0.16670702 0.024318984
0.15637735 0.25454915 -0.055154916 0.1860648 0.35711196 -0.16509394 0.30750912 -0.1583481
0.2984585 -0.18018663 0.15256117 0.15472735 0.2703447 -0.06538455 0.19572331 -0.23690522
0.052781552 0.23732466 -0.10199018 -0.21037278 0.14934294 -0.056039967 0.21394697 0.22617438
-0.094443455 0.022006446 0.20738073 0.37708694 0.04368913 0.15038484 0.10640583 0.04440168
-0.06668085 0.12426921 0.0745801 0.0055594607 0.25063008 0.08117173 0.14053375 0.03527588
00000000: 6428 20be 61a0 893e eb12 f73d 183c c43d
00000010: a1e7 473a a805 8cbe e1fd 9abc 1d3b e53d
00000020: 70b2 9dbe 32b2 97bd 97eb 443e ff93 6bbe
00000030: 823b 603d d5e3 1dbe fb37 0abd ddca 99be
00000040: ac92 13bd 6c93 8abd 4f4e 813e 3359 873e
00000050: 7e99 16be 5c32 463e b34e d13d 76b1 94be
00000060: 019a 97be 939d f43d 9463 82be 3e87 0ebe
00000070: b31c e0bd 4ab7 893e e2c1 64be b434 3e3d
00000080: 42a4 57be ddbb 913e 66a1 ecbd 687d b73d
00000090: 880c 623d 8624 823d 468c 233e ace4 ecbd
000000a0: d828 8a3d 9f7e 17be de68 dfbd 0e2d 40be
000000b0: fd26 77be 2dc8 fdbd f6df 733e a130 7d3e
000000c0: fd12 693e bf1f dfbd a582 03be 98cf 80be
000000d0: dced 113d 4cd4 c8bd 293d e4bd 0444 573e
000000e0: 020a 6e3d 22a2 de3d aa13 823e 3df2 043e
000000f0: 3c17 1abe d756 5d3e ef25 f3bd 1100 2fbe
00000100: cecb 86be d33b 053e 2813 933e 4669 963e
00000110: b48d 7fbd 9af0 6f3d dd09 a7be f3ca 89bd
00000120: e61e 9fbe 74fd 7abd 5d1c e6bc 3e7c 103e
00000130: f1c8 dd3d c245 983c 9e8f 9a3c a9c6 583d
00000140: 61f0 2dbe 3b9f d53c 3013 ad3d a94a d9bc
00000150: d58c 90bb 4f0a 1c3e 3874 27be 27ff 8a3e
00000160: 17f6 3abe d2ad 983e f4dd adbd 5870 56be
00000170: 5b32 8e3e b279 7c3d 462e 24be 8fdd 61be
00000180: 15ac 4fbd 5733 9c3e bc0b adbe 3592 acbd
00000190: 0096 ae3e a0b5 c83d c488 683e 62c6 a93d
000001a0: 0fbe ebbd 41ba 4dbe 1bbd 9cbd 1c23 acbd
000001b0: 2d54 b83d c3d0 68be e5b3 2c3e 0d6f af3d
000001c0: a6d3 5c3e 93ca e7bc 5047 a73c 8106 5cbd
000001d0: 9327 babd 33b8 383e 9b4c 88be 5e65 a93e
000001e0: 7a8a c43d 2c5d 2abe 562f 48be a00e 833d
000001f0: 4387 52bd b774 01bd 0c30 c6bd f8b7 b23d
00000200: 0933 81be 517a 3fbd 7ce7 863e b801 bf3d
00000210: af3a 213e 3e59 333e 815b 32be 6042 3d3c
00000220: 39dc 54bd 547a e3bd cb1d 8e3e 340c 153e
00000230: 5ccd 803e 82ab 593e 7464 fd3c 3ecc b03e
00000240: b826 2abe 202a 133a 69d9 b33d 3ae6 68be
00000250: 024c 10bd ff8d b2bd be01 83be c4cf 723e
00000260: 15b6 96be f7a4 c33d 81b4 ae3e db77 083e
00000270: ea03 4f3e dd17 51be b11b 8dbe b7dd 403d
00000280: 4bc2 1dbe c404 e93d 9680 be3d ed65 2c3d
00000290: 0ed5 233e 7c0d 9dbe e72f 313e 16a6 353d
000002a0: 4329 08bb 008c 07be 51c3 7f3d 2d01 573e
000002b0: 5d39 20be bbf5 93be 02b7 cdbd 95e6 8d3e
000002c0: 2968 26be ee82 583e 8fd3 753e 4064 943e
000002d0: 6e86 6dbd 5269 b43d c6a7 143e 130c 413e
000002e0: 9235 52be a2b3 73be ea66 363e 789b 153e
000002f0: 04a0 30be 8c15 c53d 937b 0bbe cc35 cbbc
00000300: 8f92 4cbc bcce 2cbe 59ce 85be a65b 56be
00000310: 15b2 553e 449a 47be 4e59 93bd 5b7b 963e
00000320: 748c b4be f2c0 67be eb80 8fbd f722 12be
00000330: b0d7 923e 7b05 1eba a3ac fbbd e9ea f63d
00000340: 3b40 6fbd cace 91be 4a29 d43d 276e 643e
00000350: d444 343e ac25 f73d 3fb5 2abe 9b38 c73c
00000360: 6221 203e 4454 823e 1fea 61bd c587 3e3e
00000370: 61d7 b63e 630e 29be d671 9d3e 0126 22be
00000380: 8dcf 983e d882 38be ff38 1c3e d970 1e3e
00000390: 9f6a 8a3e 56e8 85bd b16b 483e 4897 72be
000003a0: 7831 583d 3c05 733e 3ae0 d0bd f66b 57be
000003b0: 5bed 183e 2a8a 65bd ea14 5b3e 429a 673e
000003c0: 926b c1bd dd46 b43c 9d5b 543e 8a11 c13e
000003d0: 60f3 323d 7cfe 193e 4deb d93d 89de 353d
000003e0: f88f 88bd db80 fe3d 74bd 983d 232c b63b
000003f0: 9652 803e 5d3d a63d 14e8 0f3e 717d 103d

linear1.bias f4 [256]
-0.13162144 -0.27017203 0.0789655 -0.13230908 -0.054778937 -0.17580076 -0.108913675 0.060374677
0.08387513 0.06641408 0.13862948 -0.31370634 0.19007039 0.14859428 0.26831442 0.23878868
0.14157964 -0.2549266 -0.1859096 0.025756286 0.331506 0.07499493 -0.043275893 0.12674862
0.053926867 -0.062084503 -0.015699858 -0.2070142 -0.09167756 -0.17042765 0.27141958 0.045348182
0.07803344 -0.062124513 0.1956764 -0.16371426 -0.26943916 0.09361227 -0.3259205 0.10024664
0.15233222 0.058933485 0.10435545 -0.06608767 0.22371389 -0.14110091 0.4041692 0.078251384
-0.002766683 0.2393316 0.0145752 0.15496431 -0.08044734 -0.2142747 0.22431342 0.32515267
-0.09639821 -0.29693136 0.2804683 0.08372385 0.18919042 -0.0756593 -0.07551286 0.031683814
0.10724824 0.195551 0.015750917 0.0063657374 -0.22089927 -0.18753044 -0.04285017 0.19048046
-0.23167321 -0.0030844735 -0.036913168 0.18226683 0.10915823 0.075285606 -0.0027123338 0.20138837
-0.28947896 -0.01422644 -0.177417 0.093138844 0.12795481 0.23848437 0.17629145 0.06910581
0.18722184 -0.10718506 0.13181391 -0.14040014 0.0139062675 0.015675033 0.08349087 0.020777196
-0.30918986 -0.13672045 -0.16929436 0.042086918 0.048605703 0.2452386 -0.1968935 0.04647604
0.13039958 0.31257778 0.0506815 0.28433374 -0.22208185 0.036342733 -0.26029652 0.31943592
0.081178345 0.26049063 -0.17394218 -0.2723208 -0.010371802 -0.12286758 -0.1897732 0.28897938
0.021540819 0.1786834 -0.036436453 0.22967935 0.12262539 -0.26682463 0.22859704 -0.13213263
-0.07491505 -0.04952391 -0.10058245 0.33607063 -0.2843876 -0.32754853 -0.078115225 -0.012792395
-0.0475846 -0.21647966 0.17504676 0.24825212 -0.04641747 -0.24284351 0.04395457 -0.22345972
0.33371314 0.24554119 0.13710743 0.33232754 0.059023943 0.35826543 -0.32264528 -0.34686044
-0.17085026 0.023932744 -0.1485571 -0.008024848 0.10090604 0.21254106 -0.06969743 0.0023993365
0.18884237 0.06428565 -0.102179654 0.078543834 0.13304214 0.020084241 -0.108071096 0.2765946
-0.22234505 0.0022447284 -0.12368127 0.091855064 -0.10366708 0.010977295 0.25376317 0.10565402
0.24005227 0.21450822 -0.16536868 -0.19082212 -0.21995068 0.18474625 -0.00493816 -0.09512667
0.05370861 0.23126784 -0.14539112 -0.15314831 0.09882456 0.16770773 0.35386786 -0.15985073
0.20483431 0.03253477 -0.22011657 0.105427414 0.28212863 0.2050643 -0.053256623 0.043495066
0.24814714 0.017972795 0.013668155 0.31327942 0.30643842 0.03906916 -0.14587225 -0.0005207525
-0.20817892 -0.25679973 -0.29386815 0.28226662 0.19688289 0.32276374 0.32663172 -0.31797913
-0.12195841 0.23081625 -0.18726398 0.15175378 0.049737506 0.24330002 0.07987071 -0.019656563
0.19478633 0.183788 -0.21139249 -0.14539495 0.38297212 -0.15533228 0.077574 0.27374333
-0.12035521 -0.057370134 -0.3215345 -0.1356407 0.15984447 0.23911418 -0.17159581 -0.1537641
0.18355882 0.16336665 0.31754273 -0.2789324 0.039366104 0.03477147 0.37959716 -0.040308796
0.20083612 -0.20688573 -0.032614022 0.14504595 -0.18769182 -0.28688556 -0.17691147 0.33428663
00000000: c5c7 06be fd53 8abe aab8 a13d 087c 07be
00000010: e15f 60bd 1d05 34be 220e dfbd 704b 773d
00000020: b9c6 ab3d 1b04 883d e3f4 0d3e 1e9e a0be
00000030: d0a1 423e 1929 183e 8260 893e 0585 743e
00000040: 41fa 103e bd85 82be 165f 3ebe d9fe d23c
00000050: 28bb a93e f196 993d 1042 31bd 64ca 013e
00000060: 6be2 5c3d 524c 7ebd fd9c 80bc 88fb 53be
00000070: 72c1 bbbd 9684 2ebe 82f7 8a3e 04bf 393d
00000080: ffcf 9f3d 4676 7ebd 655f 483e b6a4 27be
00000090: eef3 89be cab7 bf3d 0ddf a6be 1c4e cd3d
000000a0: fafc 1b3e 3d64 713d 4fb8 d53d f958 87bd
000000b0: 4115 653e c27c 10be 44ef ce3e 4342 a03d
000000c0: 3d51 35bb 5813 753e d2cc 6e3c f7ae 1e3e
000000d0: 93c1 a4bd d46a 5bbe 6bb2 653e 697a a63e
000000e0: 6d6c c5bd 6307 98be 8b99 8f3e 6977 ab3d
000000f0: 22bb 413e 43f3 9abd 7da6 9abd e3c6 013d
00000100: f7a4 db3d 853e 483e 1108 813c ad97 d03b
00000110: 6b33 62be fb07 40be a983 2fbd 4f0d 433e
00000120: be3b 6dbe e124 4abb 4332 17bd 28a4 3a3e
00000130: 5a8e df3d 572f 9a3d 69c1 31bb c138 4e3e
00000140: 9636 94be 0416 69bc cdac 35be 94bf be3d
00000150: 9606 033e 3f35 743e bf85 343e 5987 8d3d
00000160: 15b7 3f3e d783 dbbd 3afa 063e 0ec5 0fbe
00000170: 1dd7 633c ed68 803c 43fd aa3d f034 aa3c
00000180: 224e 9ebe 7200 0cbe 805b 2dbe 5563 2c3d
00000190: c616 473d d41f 7b3e 739e 49be a95d 3e3d
000001a0: 7887 053e 320a a03e 6897 4f3d 3194 913e
000001b0: 6d69 63be 1edc 143d 9645 85be 1b8d a33e
000001c0: d540 a63d 075f 853e e61d 32be a26d 8bbe
000001d0: 7eee 29bc ffa1 fbbd e853 42be 1bf5 933e
000001e0: 5f76 b03c c8f8 363e 643e 15bd 1031 6b3e
000001f0: 0523 fb3d 3d9d 88be 5815 6a3e c74d 07be
00000200: 106d 99bd 95d9 4abd 2cfe cdbd 7311 ac3e
00000210: 409b 91be 71b4 a7be e0fa 9fbd 3297 51bc
00000220: 12e8 42bd d8ac 5dbe 753f 333e ce35 7e3e
00000230: 3f20 3ebd f8ab 78be b509 343d a0d2 64be
00000240: 73dc aa3e 266f 7b3e e465 0c3e d626 aa3e
00000250: 17c3 713d 916e b73e c331 a5be b197 b1be
00000260: 5ff3 2ebe 9a0e c43c 5a1f 18be a77a 03bc
00000270: d3a7 ce3d 5da4 593e 87bd 8ebd 303e 1d3b
00000280: e55f 413e 32a8 833d 9143 d1bd 97db a03d
00000290: 333c 083e b587 a43c 6154 ddbd cf9d 8d3e
000002a0: 6cae 63be 4b1c 133b 9b4c fdbd 821e bc3d
000002b0: 684f d4bd 1dda 333c 3fed 813e 2361 d83d
000002c0: 43d0 753e 0ba8 5b3e 6856 29be e066 43be
000002d0: c03a 61be 1f2e 3d3e 4ad0 a1bb c6d1 c2bd
000002e0: 8ffd 5b3d 7ad1 6c3e 69e1 14be e9d2 1cbe
000002f0: 8864 ca3d 93bb 2b3e 2b2e b53e e9af 23be
00000300: 16c0 513e 2e43 053d 3d66 61be 54ea d73d
00000310: 2a73 903e 60fc 513e 9e23 5abd e227 323d
00000320: 491a 7e3e af3b 933c 66f0 5f3c 2966 a03e
00000330: 7fe5 9c3e fc06 203d 895f 15be 1c83 08ba
00000340: db2c 55be 417b 83be e375 96be 4085 903e
00000350: ab9b 493e 4a41 a53e 463c a73e 29ce a2be
00000360: 55c5 f9bd 185b 6c3e 21c2 3fbe 5865 1b3e
00000370: 8eb9 4b3d a423 793e 4193 a33d cd06 a1bc
00000380: 1176 473e ec32 3c3e 4677 58be 6ae2 14be
00000390: ec14 c43e 6d0f 1fbe 1edf 9e3d 1628 8c3e
000003a0: cb7c f6bd f2fc 6abd 2ca0 a4be 65e5 0abe
000003b0: 45ae 233e 59da 743e d0b6 2fbe 5674 1dbe
000003c0: d8f6 3b3e 9649 273e f694 a23e 3ad0 8ebe
000003d0: 5a3e 213d 876c 0e3d 8f5a c23e d61a 25bd
000003e0: fca7 4d3e dad9 53be 4896 05bd ed86 143e
000003f0: 4932 40be aae2 92be 4828 35be 9e27 ab3e

linear2.weight f4 [3, 256]
-0.021329971 0.09410888 -0.015721833 0.04540638 0.0073804804 -0.004806588 -0.054172825 -0.109959885
0.042501748 -0.008827188 -0.02094359 -0.020816287 -0.027626922 -0.08902918 -0.07378078 0.08969292
0.0035628392 0.02135106 -0.11412073 0.008146143 -0.11670939 0.005000768 -0.10203212 -0.04578214
-0.10233038 -0.06285745 -0.014170852 0.029214343 0.009334331 0.017920963 -0.07415825 -0.08310985
-0.09063941 -0.015843062 -0.020761965 -0.02325567 -0.05618237 -0.09109595 0.04244921 0.007476317
-0.0039473465 0.10913495 0.0077719507 -0.01215406 0.021114746 -0.0021682237 -0.08037461 -0.019946774
-0.036278483 -0.016552784 -0.095271915 -0.056191742 0.07363941 0.007920958 -0.050943356 -0.06727427
0.013629047 0.062130883 0.03188537 -0.08216612 -0.007960598 0.01056751 -0.050683577 0.0069961115
-0.007189633 0.032658305 0.02774879 -0.020204868 0.027463965 -0.07710617 0.04657151 -0.07048407
0.09895602 0.0071491455 -0.0029969974 -0.03824208 -0.034350187 -0.0934129 -0.058913287 -0.08381489
-0.013367013 -0.018403638 0.03754838 -0.075635895 -0.02304359 -0.015771283 0.0073192483 -0.032505605
-0.056519512 -0.031279787 -0.0152232945 -0.038157783 -0.037626535 -0.09305908 0.037294466 -0.03318904
0.009936432 -0.022759994 -0.018799549 -0.057101894 -0.010545199 -0.10300005 0.057359822 -0.015662394
-0.054727346 -0.06714501 0.01053719 -0.033241026 0.032837115 -0.015583935 -0.052522294 -0.0693264
-0.0717468 0.009582508 -0.0077448203 0.011355154 -0.09420337 -0.075942494 0.04970102 -0.001833351
0.007340099 0.019122433 -0.06123898 -0.026100406 -0.06784186 0.1094306 -0.0010540927 0.076470956
-0.051300522 0.020330977 0.0024748207 -0.06339605 0.023955246 0.015749589 -0.074467994 -0.015239985
0.07490777 -0.07343336 -0.009558837 -0.057771493 -0.050285637 -0.004316842 -0.001913782 0.0019714648
-0.12816456 -0.08435741 -0.052844856 0.029016607 -0.032688092 -0.05766245 0.023212891 0.025336068
-0.054883573 -0.11466096 0.1097159 0.040905446 -0.06761987 0.082977615 -0.00029995828 -0.028284304
-0.054691203 0.0058063273 -0.087741606 -0.009408487 -0.02922543 -0.089629434 0.0676079 -0.011547946
0.011084793 -0.03541887 -0.11458672 -0.021966308 -0.08901955 -0.049957052 -0.0685218 0.032348074
-0.04439797 -0.06532669 0.09227434 -0.04692014 0.033501837 -0.0008524493 0.045154266 -0.0649381
-0.032382064 -0.057868373 0.005255757 -0.03745166 0.0056929006 0.04036118 -0.115944415 -0.011801977
-0.019919904 0.065195575 -0.028472384 0.052729182 -0.010723253 -0.068959266 -0.078586176 -0.023030223
-0.033408232 -0.063878834 -0.09134116 -0.05120616 -0.065903515 0.065027885 -0.07309539 -0.06961622
-0.031672288 -0.01596374 0.012003785 -0.03606978 0.018948223 -0.047799 -0.11408648 0.02349497
0.003773891 -0.04714764 -0.033100292 0.0144796 -0.0042526447 -0.029361766 0.046358876 -0.029342
-0.09745103 -0.057528924 -0.03062348 -0.0058455467 -0.106085375 -0.06541447 0.006119813 -0.096988626
-0.047495674 0.011251548 -0.01596115 0.0040547424 -0.03912818 -0.015871802 -0.02841251 -0.04577304
0.0017104396 -0.0072286753 -0.075030655 0.00385022 -0.09575575 0.044941034 -0.09228095 0.025317349
-0.05198412 -0.04531166 -0.053538658 0.025098776 -0.05712021 -0.004517108 -0.07579493 -0.09500303
00000000: 31bc aebc 28bc c03d 13cb 80bc 0afc 393d
00000010: f5d7 f13b 9580 9dbb 53e4 5dbd a632 e1bd
00000020: 5016 2e3d e99f 10bc e491 abbc eb86 aabc
00000030: db51 e2bc ee54 b6bd 611a 97bd ecb0 b73d
00000040: 867e 693b 6be8 ae3c 21b8 e9bd 6677 053c
00000050: 5505 efbd 7cdd a33b 37f6 d0bd 0e86 3bbd
00000060: 9792 d1bd 68bb 80bd dc2c 68bc eb52 ef3c
00000070: 06ef 183c fcce 923c 48e0 97bd 7f35 aabd
00000080: 28a1 b9bd 4fc9 81bc ff14 aabc ad82 bebc
00000090: 7c1f 66bd 8390 babd 39df 2d3d e5fb f43b
000000a0: be58 81bb 2582 df3d d9ab fe3b d321 47bc
000000b0: d5f8 ac3c c218 0ebb 729b a4bd 6b67 a3bc
000000c0: bf98 14bd b499 87bc ec1d c3bd 5029 66bd
000000d0: 42d0 963d e8c6 013c fba9 50bd 18c7 89bd
000000e0: 5e4c 5f3c f47c 7e3d 3c9a 023d b646 a8bd
000000f0: 2b6d 02bc 5923 2d3c 9599 4fbd a33f e53b
00000100: 0397 ebbb b7c4 053d 6e51 e33c ae84 a5bc
00000110: 1cfc e03c d7e9 9dbd c5c1 3e3d f459 90bd
00000120: 74a9 ca3d 6143 ea3b 4669 44bb baa3 1cbd
00000130: c8b2 0cbd 434f bfbd 0f4f 71bd 24a7 abbd
00000140: 5101 5bbc 3ac3 96bc 55cc 193d fee6 9abd
00000150: e9c5 bcbc c732 81bc 4ed6 ef3b 9924 05bd
00000160: 0181 67bd 3c1f 00bd 206b 79bc 564b 1cbd
00000170: 481e 1abd c295 bebd 15c2 183d 3bf1 07bd
00000180: 6bcc 223c 2b73 babc 8301 9abc ade3 69bd
00000190: c5c5 2cbc b1f1 d2bd 22f2 6a3d 6c4e 80bc
000001a0: c829 60bd 5383 89bd 2ea4 2c3c be27 08bd
000001b0: 3680 063d c353 7fbc 9e21 57bd 00fb 8dbd
000001c0: fcef 92bd f4ff 1c3c 43c8 fdbb f80a 3a3c
000001d0: b2ed c0bd bd87 9bbd 4c93 4b3d 0d4d f0ba
000001e0: 3785 f03b a6a6 9c3c bad5 7abd 85d0 d5bc
000001f0: acf0 8abd 271d e03d 7b29 8aba ce9c 9c3d
00000200: 7f20 52bd 268d a63c 9a30 223b cad5 81bd
00000210: cb3d c43c 4805 813c ad82 98bd 21b1 79bc
00000220: 3f69 993d 3b64 96bd ab9c 1cbc cda1 6cbd
00000230: 50f8 4dbd 4c74 8dbb ded7 faba b133 013b
00000240: 923d 03be 94c3 acbd d973 58bd 3cb4 ed3c
00000250: f3e3 05bd 762f 6cbd f628 be3c 968d cf3c
00000260: 99cd 60bd 5ed3 eabd bbb2 e03d 788c 273d
00000270: 497c 8abd 2bf0 a93d b843 9db9 7cb4 e7bc
00000280: e203 60bd 0143 be3b dfb1 b3bd 0e26 1abc
00000290: 2b6a efbc a38f b7bd 0376 8a3d 9933 3dbc
000002a0: fe9c 353c 6113 11bd 71ac eabd b0f2 b3bc
000002b0: e24f b6bd c49f 4cbd 2855 8cbd 6a7f 043d
000002c0: a5da 35bd 00ca 85bd 54fa bc3d 552f 40bd
000002d0: 3939 093d e776 5fba aef3 383d 44fe 84bd
000002e0: 0ea3 04bd 6307 6dbd 7c38 ac3b e966 19bd
000002f0: 838b ba3b c451 253d 4474 edbd 145d 41bc
00000300: 112f a3bc 4285 853d eb3e e9bc 8efa 573d
00000310: 95b0 2fbc 843a 8dbd caf1 a0bd e1a9 bcbc
00000320: 12d7 08bd e8d2 82bd 1311 bbbd 8dbd 51bd
00000330: 6cf8 86bd 572d 853d 09b3 95bd f392 8ebd
00000340: cdba 01bd 64c6 82bc 86ab 443c e8bd 13bd
00000350: 4e39 9b3c e2c8 43bd 2ca6 e9bd 8678 c03c
00000360: 6253 773b e21d 41bd 2c94 07bd d83b 6d3c
00000370: c559 8bbb 1688 f0bc cee2 3d3d a25e f0bc
00000380: 6894 c7bd 73a3 6bbd 18de fabc 008c bfbb
00000390: 4a43 d9bd 06f8 85bd b688 c83b f9a1 c6bd
000003a0: d38a 42bd 6a58 383c f5c0 82bc a5dd 843b
000003b0: df44 20bd 9505 82bc 5ac1 e8bc 837c 3bbd
000003c0: d430 e03a 86de ecbb aca9 99bd f953 7c3b
000003d0: 971b c4bd 1714 383d cbfd bcbd 5466 cf3c
000003e0: 4ded 54bd b898 39bd 5a4b 5bbd f39b cd3c
000003f0: e2f6 69bd 4004 94bb 5f3a 9bbd f390 c2bd

linear2.bias f4 [3]
-0.022518206 -0.10349132 -0.105744705
00000000: 1a78 b8bc 42f3 d3bd ae90 d8bd
